…
9299596218"}},"outputId":"824f7f2d-6899-45e9-8d2b-146a565eb69b"},"source":["model = my_model()\n","model.summary()"],"execution_count":15,"outputs":[{"output_type":"stream","name":"stdout","text":["Model: \"model_1\"\n","_________________________________________________________________\n","Layer (type)                 Output Shape              Param #   \n","=================================================================\n","input_3 (InputLayer)         [(None, 224, 224, 3)]     0         \n","_________________________________________________________________\n","tf.math.truediv_1 (TFOpLambd (None, 224, 224, 3)       0         \n","_________________________________________________________________\n","tf.math.subtract_1 (TFOpLamb (None, 224, 224, 3)       0         \n","_________________________________________________________________\n","mobilenetv2_1.00_224 (Functi (None, 7, 7, 1280)        2257984   \n","_________________________________________________________________\n","dense_5 (Dense)              (None, 7, 7, 256)         327936    \n","_________________________________________________________________\n","dense_6 (Dense)              (None, 7, 7, 512)         131584    \n","_________________________________________________________________\n","global_average_pooling2d_1 ( (None, 512)               0         \n","_________________________________________________________________\n","dense_7 (Dense)              (None, 512)               262656    \n","_________________________________________________________________\n","dropout_1 (Dropout)          (None, 512)               0         \n","_________________________________________________________________\n","dense_8 (Dense)              (None, 9)                 4617      \n","=================================================================\n","Total params: 2,984,777\n","Trainable params: 726,793\n","Non-trainable params: 2,257,984\n","_________________________________________________________________\n"]}]},{"cell_type":"code","metadata":{"id":"-F-jUFAVfx67","executionInfo":{"status":"ok","timestamp":1632110187481,"user_tz":-420,"elapsed":353,"user":{"displ
…
9299596218"}},"outputId":"8e7c72db-dba8-4549-9678-aee5c167088b"},"source":["model1 = my_model()\n","model1.summary()"],"execution_count":12,"outputs":[{"output_type":"stream","name":"stdout","text":["Model: \"model\"\n","_________________________________________________________________\n","Layer (type)                 Output Shape              Param #   \n","=================================================================\n","input_2 (InputLayer)         [(None, 224, 224, 3)]     0         \n","_________________________________________________________________\n","tf.math.truediv (TFOpLambda) (None, 224, 224, 3)       0         \n","_________________________________________________________________\n","tf.math.subtract (TFOpLambda (None, 224, 224, 3)       0         \n","_________________________________________________________________\n","mobilenetv2_1.00_224 (Functi (None, 7, 7, 1280)        2257984   \n","_________________________________________________________________\n","dense (Dense)                (None, 7, 7, 128)         163968    \n","_________________________________________________________________\n","dense_1 (Dense)              (None, 7, 7, 256)         33024     \n","_________________________________________________________________\n","dense_2 (Dense)              (None, 7, 7, 512)         131584    \n","_________________________________________________________________\n","global_average_pooling2d (Gl (None, 512)               0         \n","_________________________________________________________________\n","dense_3 (Dense)              (None, 512)               262656    \n","_________________________________________________________________\n","dropout (Dropout)            (None, 512)               0         \n","_________________________________________________________________\n","dense_4 (Dense)              (None, 9)                 4617      \n","=================================================================\n","Total params: 2,853,833\n","Trainable params: 595,849\n","Non-trainable params: 2,257,984\n","_________________________________________________________________\n"]}]},{"cell_type":"code","metadata":{"id":"ha6j1jQCeQMI","executionInfo":{"status":"ok","timestamp":1632110162438,"user_tz":-420,"elapsed":398,"user":{"displ
…
